THARIKA S (1).pt (torch, 41688 bytes, 7 tensors)

encoder.0.weight f4 [16, 1, 3, 3]
000000 3d f4 32 be 4a b4 16 bd ce bd 35 bd 91 bd 23 bb
       -0.17475982 -0.03679303 -0.044370465 -0.0024984817
000010 98 ce 85 bc fb cc 8a 3c f5 1c 2c 3e 55 23 36 be
       -0.016333863 0.016943445 0.16807921 -0.17786916
000020 af 2a c4 3d f7 09 20 3e 32 70 15 3f 7a b4 bf 3e
       0.09578454 0.15628801 0.5837432 0.3744238
000030 23 7e 9b be 5a ce 3b bc 83 e4 4b 3e ef 8e 7f bd
       -0.30369672 -0.011462772 0.19911389 -0.06239217
000040 50 1e 50 bd 7a f8 a2 3e 90 f0 13 ba 89 20 5b bd
       -0.05081016 0.31830198 -0.00056434516 -0.053497825
000050 5b c4 7c be 0a ac 98 3d b1 1c 88 3d d7 ca d6 3d
       -0.24684279 0.07454689 0.066460975 0.104879074
000060 16 9d 7e bd fc ae 35 be 6b da 9d 3c 41 f6 12 3e
       -0.062161528 -0.17742532 0.019269189 0.14351751
000070 61 37 76 be 85 b8 bf 3d a8 9c 55 3e df 8d 84 3e
       -0.24044563 0.09361366 0.20860541 0.2588949
000080 86 51 52 be 5e 06 8e be a7 f6 bf 3d 8b 82 96 bd
       -0.20538911 -0.27739233 0.09373217 -0.07349118
000090 70 1c 54 3d 72 36 79 3e c8 cb 0e 3e 90 20 8e 3e
       0.051784933 0.24337175 0.13944924 0.27759218
0000a0 88 b9 f4 3e 53 3d 53 3e 88 a4 2f 3e d1 e1 8b 3e
       0.477978 0.20628862 0.17152607 0.27320722
0000b0 0e 51 ff 3b b5 0e 63 3e 90 3c ce bd 84 38 b8 be
       0.007791645 0.22173579 -0.10070145 -0.35980618
0000c0 15 22 cc 3e fc 4a 44 3d 8e d0 5d bd 6f 00 ba 3e
       0.39869753 0.047923073 -0.05415397 0.36328456
0000d0 d2 ae cd 3e a1 5f 86 3e c2 cc a9 bd 67 e6 40 3d
       0.4017244 0.26244834 -0.082910076 0.04709473
0000e0 c0 06 77 3e 02 c2 80 3d 0f 7e fd bd 7d 8e c8 3e
       0.24123669 0.06287004 -0.123775594 0.3917121
0000f0 ad cf 40 bd 24 62 eb bd 2a d2 8b bd 50 e6 58 be
       -0.047073055 -0.11493328 -0.06827195 -0.21181607
000100 fa b1 93 be 70 9f 1a 3d d3 01 9b be a9 64 95 be
       -0.28846723 0.037749708 -0.3027483 -0.2917836
000110 80 36 33 3c 51 98 92 be 12 b4 99 3d 27 00 25 3e
       0.010938287 -0.28631833 0.07505049 0.1611334
000120 98 d2 80 be 91 75 b6 be bb 28 a4 be 95 ab 8a 3d
       -0.2516067 -0.3563657 -0.32062325 0.06771008
000130 6b e0 99 bd 3a 7d 9b be 2b 31 a0 3e 12 49 db 3d
       -0.075135075 -0.30368978 0.31287512 0.107072964
000140 ca a2 12 be 04 9d 85 3e f4 2c df 3e c1 f6 6e 3e
       -0.14319912 0.26096356 0.43588984 0.23336317
000150 37 0b ad 3e 2f bd 22 3e 63 e4 3e be bd 3d e8 3d
       0.3379762 0.1589248 -0.1864181 0.11339901
000160 e9 2f 02 be b3 7b 19 be ff 1e 1f 3b 66 8e 2a bd
       -0.12713589 -0.14988594 0.002427995 -0.041639708
000170 d0 7e f1 bd 2d 78 9b 3d 33 bc e4 bd b4 0a 8c be
       -0.11791766 0.07591281 -0.11168709 -0.27351916
000180 ff d6 4f 3e f8 c6 d8 bc fc 8d d0 bd cc 20 33 bc
       0.20296858 -0.026462063 -0.10183331 -0.010933112
000190 89 53 6a 3e 4c 3c ea 3d 64 01 7a 3e 7f 1d 94 3e
       0.22883429 0.11437282 0.24414593 0.28928754
0001a0 f5 14 d7 3c 5a fa 70 3e d1 8a a1 3e f3 1c 24 be
       0.02625511 0.23533002 0.3155122 -0.16026668
0001b0 7c 02 1a be ce ca 49 bd 80 e2 bc 3e c1 b1 4a be
       -0.1504001 -0.049265675 0.36891556 -0.1979437
0001c0 ca 11 0c 3f d3 36 0c 3f 57 39 1b 3b 1c dd 35 3e
       0.54714644 0.54771155 0.00236853 0.17760128
0001d0 41 b0 da 3e a2 b7 ff 3d d9 56 fa 3d 82 79 85 be
       0.42712596 0.12486197 0.12223596 -0.26069266
0001e0 90 f7 43 be d5 7c 62 be 98 dd 1d 3c aa 23 08 3e
       -0.19137406 -0.22117932 0.009635352 0.13294855
0001f0 c8 bd 91 3e ae d1 4a 3e 46 6d ca bd 0e a8 a0 bc
       0.28465104 0.19806549 -0.098841235 -0.019611385
000200 96 04 70 3d ac 10 a8 be 79 c2 b6 3e 5b 94 ae bc
       0.058598123 -0.3282522 0.35695246 -0.021310976
000210 69 36 27 3d 37 9c 47 be 8e d3 db 3b aa cd 12 3d
       0.040823374 -0.19493185 0.006708569 0.035840668
000220 73 0b 0d be 16 62 35 3e f6 15 98 bd 56 a8 04 bd
       -0.13773899 0.17713198 -0.07426064 -0.0323871
000230 4e 12 37 3d 2f 9b d9 3d fa 03 de 3e a4 29 ce bd
       0.04469519 0.10625302 0.4336241 -0.10066536

encoder.0.bias f4 [16]
000000 35 d2 9e 3e 6d 11 04 bd 49 17 d8 3e 0e e7 ba 3e
       0.3101975 -0.03224318 0.42205265 0.36504406
000010 27 d2 0e bf e2 74 ce be 63 db 75 3e cd b1 97 be
       -0.5578942 -0.4032355 0.2400947 -0.2962784
000020 3c dc b2 3e 07 14 5d 3e b3 1b e3 3e 53 a3 99 3e
       0.3493365 0.21589671 0.4435707 0.3000742
000030 4c 63 88 be d1 92 db 3e 8e e5 a3 3d 77 74 57 3e
       -0.26638258 0.4288545 0.080027685 0.21040522

encoder.2.weight f4 [32, 16, 3, 3]
000000 36 fa 11 be 1c c8 56 3d 4d b1 f7 3d b9 03 f7 bd
       -0.14255604 0.052436933 0.12094364 -0.12061257
000010 21 c1 c5 3d 94 53 cc 3d a7 2f e1 3d 70 de 1e 3e
       0.09655977 0.09976879 0.10995417 0.1551454
000020 69 df b9 bb 66 0f 4d bd 68 28 e2 3c ff d7 af 3b
       -0.0056723845 -0.050063513 0.027607158 0.005366325
000030 93 2c 5d 3d c7 39 a9 3e 0e ab c7 3e a3 97 08 be
       0.053997587 0.33051893 0.38997692 -0.13339095
000040 0a 62 c7 3d f3 c4 c7 3d 71 e3 bf bd 19 2a 0d 3d
       0.09735496 0.09754362 -0.09369553 0.034463976
000050 73 0f e8 3d 22 e1 0f bd 8b 07 c3 3d 04 6b 46 3d
       0.11331072 -0.035126813 0.09522923 0.0484419
000060 25 a4 bb 3c 5a 4a f2 3c ff 05 54 3d 94 bc 57 bd
       0.022905419 0.02957647 0.05176353 -0.052670076
000070 8c 1d 0c bd a5 34 c5 bd 5b c0 51 bd 93 39 59 3d
       -0.034207866 -0.09629182 -0.051208835 0.053033423
000080 15 81 30 3c 64 1f a4 bd c8 30 f8 3b c4 53 bc 3d
       0.010772963 -0.080138 0.0075741746 0.091956645
000090 6a 4f b2 3d d9 e2 2f bd 38 69 7a bc 3e 80 18 3d
       0.08706553 -0.04294095 -0.015283875 0.037231676
0000a0 5c 23 6c be b6 bb 3a be c1 59 93 bc 46 b4 12 be
       -0.23060364 -0.18235669 -0.017987134 -0.14326581
0000b0 fb 02 83 3d c3 c5 b7 ba 60 2d 9b bc 99 de 38 be
       0.06397053 -0.001402073 -0.018942535 -0.18053664
0000c0 ac 12 10 be 7d f0 ed bc b2 84 9a 3c 23 bb 21 3e
       -0.14069623 -0.029045338 0.018862102 0.15794043
0000d0 3f 15 c6 bc 9c 4a bf bc c1 23 c7 bc bb 9b 0b 3e
       -0.024180053 -0.023351006 -0.024309041 0.13633625
0000e0 65 32 ac 3d 30 5b 38 3d 39 29 66 3e eb ae a0 3e
       0.084080495 0.04500884 0.22476663 0.31383452
0000f0 84 b4 54 be 67 d1 dc 3d 5c a7 1e 3e 82 ad 9e 3d
       -0.20771986 0.10782128 0.1549353 0.07747938
000100 c7 f8 90 bd 4c d2 d3 3c 07 d3 8f 3d 6d 2a 1c 3d
       -0.070787005 0.025857113 0.07022672 0.038126398
000110 7c a8 38 bd 23 72 3c 3d 31 3a a0 3d 80 cf 57 bd
       -0.045082554 0.046007287 0.07823599 -0.05268812
000120 c8 14 da 3d 7f 67 a0 be 94 72 b6 bd 49 de 8d bc
       0.10648495 -0.3132896 -0.08908573 -0.017317908
000130 e2 0f 06 3e 3a 6e 2e 3e 66 43 5e be ca 26 ad be
       0.13091996 0.17034236 -0.21705398 -0.33818656
000140 24 4b 32 be 80 1c ac bd 9d f6 0a 3c b1 fd 76 3d
       -0.17411476 -0.084038734 0.008481649 0.060300533
000150 1b a6 8b 3d 6b cb 33 3e d3 fe b5 bd f6 7d 3b bd
       0.068187915 0.17558067 -0.088864945 -0.045774423
000160 03 66 61 be ab d2 d7 3d e5 7e cd bd 4e 21 54 3d
       -0.2201157 0.105382286 -0.10033969 0.051789574
000170 da 22 bf 3c 34 9c 72 3c cb 54 0b bd 9e e3 b2 3d
       0.023332048 0.01480775 -0.03401641 0.08734821
000180 7f 80 ba 3d 8e 91 97 bc 80 00 78 3d 59 e6 5c bd
       0.0910654 -0.018502023 0.06054735 -0.053930614
000190 9e 8a 33 bc 22 b5 3b 3d bb f8 2d bd d3 bc 54 bc
       -0.010958342 0.04582704 -0.042473536 -0.012984472
0001a0 ca ac b4 3c 81 56 0f be ac e0 d4 bd 3e 5e a0 3c
       0.022055048 -0.13997842 -0.10394415 0.019576188
0001b0 aa 9e 89 3d 9e 88 5d bd 4d 85 80 3e db 6d 40 bd
       0.06719716 -0.054085366 0.251017 -0.046979766
0001c0 94 8d 6b bb 93 f2 f2 ba a3 59 6b be 4a 44 3b 3e
       -0.0035942541 -0.0018535428 -0.22983412 0.18287769
0001d0 fd 34 6b 3e 41 a5 f3 bb 8a fa 31 bc b5 ac 45 3d
       0.22969432 -0.0074354713 -0.010862956 0.04826041
0001e0 8c 2f 46 bd 33 01 25 bd 18 3d 37 3e 29 b2 f4 bc
       -0.048385188 -0.040284347 0.17894399 -0.02987011
0001f0 26 f4 09 bc f1 e7 ed 3d 39 80 4f 3c 30 63 17 bc
       -0.008420026 0.11616505 0.012664848 -0.009239957
000200 bf d5 3d 3e 28 b8 46 bc 82 4a 46 3e f1 a6 84 be
       0.18538569 -0.012128867 0.1936436 -0.25908616
000210 c0 38 1f 3c 42 05 00 bd 99 2e 57 bd 63 a3 30 bb
       0.00971812 -0.031255014 -0.052534673 -0.0026952855
000220 db 75 50 bd e7 b0 cd 3c cb 0c 93 bd 3d 9e 28 3c
       -0.050893646 0.025108768 -0.071801744 0.010291633
000230 32 58 80 3e f0 2e 7e 3d ca 0d 59 3e 44 f8 64 3e
       0.25067288 0.06205648 0.21196666 0.22360331
000240 9f 7e 3b 3e 99 2e 23 be 76 00 0c 3e 5a 21 5b bc
       0.18310021 -0.15935744 0.13672051 -0.013374651
000250 dc c6 39 be 39 bd 1f bd 4a a5 c8 bd d7 7f d4 bd
       -0.18142265 -0.038998816 -0.097971514 -0.10375946
000260 46 f6 4a 3b df 4d 14 3e eb 9e 59 3d 89 e3 9b 3c
       0.0030969544 0.1448283 0.05313007 0.019029396
000270 6d 47 04 3e 78 15 53 3d 7e 1d 74 bd e0 b9 65 3e
       0.12917872 0.051534146 -0.05959844 0.22434187
000280 b9 62 2f 3e f4 1b 75 3d 47 93 7e 3e 89 ae 6a b9
       0.17127503 0.05984111 0.2486087 -0.00022380998
000290 ae ec b9 3c 5f bc e8 3d 6e d2 bc bd 25 79 4f 3c
       0.022695865 0.11364054 -0.09219824 0.01266316
0002a0 14 1b c8 bc a1 6c af bd ee 36 42 3e 12 0c e6 3d
       -0.024426974 -0.08565641 0.18966267 0.11232771
0002b0 8f 80 60 3d 7d 2b f9 3d b0 47 62 3d 0a cd 5f 3a
       0.054810103 0.12166498 0.055244148 0.0008537328
0002c0 47 7e 24 3e 6a ac 80 3d 66 f4 18 3e 1a f5 25 3e
       0.16063796 0.062828854 0.1493698 0.1620678
0002d0 ca a9 17 3e 72 50 9d 3e c1 ac 4a 3e bc d2 96 3e
       0.14810863 0.30725437 0.19792463 0.29457653
0002e0 5c 23 db 3e da 9d 85 3e 6e 82 78 3e 20 53 27 3e
       0.42800415 0.26096994 0.24268505 0.16340303
0002f0 16 67 14 bd 61 75 26 3e 20 24 9c 3d fb 0d 98 3c
       -0.036231123 0.16255714 0.07624078 0.018561354
000300 2f 72 81 3d a7 b0 1f 3e a3 7e 53 3e a8 6f 64 3b
       0.06320607 0.15594731 0.20653777 0.0034856591
000310 53 b4 1c 3e dd 2a 1d 3e dd 64 51 3e 24 05 e7 bd
       0.15303163 0.15348382 0.20448633 -0.11280277
000320 30 10 8c bc 48 a6 12 3e 41 a7 82 bd 55 ed d6 3d
       -0.017097563 0.14321244 -0.063795574 0.10494486
000330 e2 a4 38 3e 85 87 4e 3c d0 1c a3 3d 06 f4 e8 bc
       0.18031648 0.012605553 0.0796448 -0.028436672
000340 8a cd 2f bd e6 35 1b 3d ac b3 04 3d 7c 13 2e bd
       -0.042920627 0.0378932 0.03239791 -0.04249905
000350 a6 c2 a4 3c fd 9b 68 bb da cb 93 3d 40 d8 9c 3d
       0.020112347 -0.0035493367 0.07216616 0.07658434
000360 5c 3a 9d bc 29 08 78 3d 00 84 20 3e 0e 75 ab 3d
       -0.019192867 0.060554657 0.15675354 0.08371936
000370 33 ca 76 3d a5 94 23 3e ba 62 57 3d 26 5f ad 3b
       0.060251426 0.15974672 0.052584387 0.0052908836
000380 10 ba 95 3d 94 6b cf bd fa b2 52 bd ab be 0f 3e
       0.07310879 -0.10127941 -0.051440217 0.14037578
000390 3a 44 0a be e3 4e 45 3d 81 74 30 3e 39 f2 0e 3e
       -0.13502589 0.048170935 0.17231943 0.13959588
0003a0 98 0e 99 3e 5f fe 84 3d 3e 24 35 3e 98 9a 66 3d
       0.29893947 0.0649383 0.17689607 0.056299776
0003b0 f6 c1 2a 3e f0 9a 8a bd 43 8a 12 be dc fd 8a 3d
       0.16675553 -0.06767833 -0.14310555 0.06786701
0003c0 34 4a 12 3e 4e f0 02 3e 1d b8 0c 3e db 3f 8f 3d
       0.14286119 0.12786981 0.13742109 0.06994601
0003d0 e0 60 21 3e 87 b3 10 3e 39 91 17 3e 5f db 81 3e
       0.15759611 0.14130984 0.14801492 0.2536268
0003e0 ee 6c 5e 3e c3 33 51 3d 5a 9a 0c 3e 1a f9 5c bd
       0.21721241 0.051074754 0.13730755 -0.0539485
0003f0 0f 49 f1 3c 12 db f7 3d f0 89 1f 3d e9 c2 23 3e
       0.029453782 0.12102331 0.038949907 0.15992321

encoder.2.bias f4 [32]
000000 d0 e5 54 3d 5c 8e ab 3d 72 70 4c 3d a3 3c 00 3d
       0.05197698 0.08376762 0.049911924 0.031307828
000010 75 55 74 3d bd 86 b0 3d 6e 45 16 3e e0 8e bf 3d
       0.05965181 0.08619449 0.14674923 0.09353423
000020 a3 0c bf 3d 34 d1 1b 3d a2 8a 0a 3e 59 04 80 3d
       0.09328582 0.03804131 0.13529447 0.06250829
000030 35 15 e4 3d 21 98 72 3d 29 a9 18 3e cb ef c5 3c
       0.111368574 0.059227113 0.1490828 0.024162194
000040 57 b5 02 3d 59 3d 3d 3e 6b fe 97 3d 8f 1e fc 3d
       0.03191122 0.18480434 0.07421573 0.12310516
000050 73 9b 9f bd c9 65 eb bb 46 7e 20 3e a1 a4 a4 3c
       -0.077933215 -0.0071837646 0.1567317 0.020098032
000060 0c 38 6b 3d 07 93 b0 3d e0 76 ab 3d c8 f2 0f 3e
       0.057426497 0.08621793 0.08372283 0.14057457
000070 5b a3 c7 3d 0e 04 42 3d f0 cf 5a 3d ee 9a 63 bc
       0.097479545 0.047367148 0.05342096 -0.013891919

decoder.0.weight f4 [32, 16, 3, 3]
000000 8f 2b ad bd 5d f4 d0 3b 86 30 9f 3d 93 bf 07 3e
       -0.08455574 0.0063767866 0.07772927 0.13256674
000010 c5 b7 3e 3d 27 2b 1b bd 99 83 54 bd 79 e7 df 3c
       0.046561975 -0.03788295 -0.051883314 0.027332054
000020 42 59 5a 3d 36 19 65 be ac e4 03 3e 13 28 aa 3c
       0.05330778 -0.22372898 0.128802 0.020771062
000030 bf dc 66 bc 7f b3 5a 3e e1 08 2d 3d 7d d6 8d 3d
       -0.014090716 0.21357535 0.042244796 0.06925676
000040 0d 7a 80 3d 6b 01 5a 3e 6f 4a 41 3d 35 d9 c7 3d
       0.06273279 0.21289603 0.047190126 0.09758226
000050 ec d6 37 3b 60 d5 6a be 27 c6 a9 3c 4f ce 19 3e
       0.0028051687 -0.22932959 0.02072437 0.15020107
000060 b2 46 5c 3e 7f 1c 84 bd 47 92 26 3d 05 96 25 3e
       0.21511343 -0.06450748 0.040666845 0.16170509
000070 da 34 13 bb 89 f8 e5 bc 63 36 66 bc 7d a8 9a ba
       -0.0022461922 -0.028072612 -0.014051053 -0.0011799481
000080 8d 1b 4d 3d f8 7f 87 3c ec 59 1d bd 5a f7 51 3d
       0.050075103 0.016540512 -0.038415834 0.051261283
000090 89 ff b0 bd 67 6c 85 bd 17 b1 f7 3d 92 19 76 3c
       -0.086424895 -0.06514817 0.12094324 0.015020745
0000a0 39 aa 7a bd 30 38 33 3d 12 38 08 bb a0 53 24 3e
       -0.061197493 0.043754756 -0.0020785374 0.16047525
0000b0 94 cf c8 3d 13 f2 23 3d ff 0d 38 be 68 73 45 3c
       0.098052174 0.04002578 -0.17974089 0.012051441
0000c0 26 a0 42 3e dd 8b a7 3c 78 84 d9 be fa f5 77 3c
       0.19006404 0.020452434 -0.42483878 0.015134329
0000d0 0d f5 e9 be b5 c6 fd bc 7f 00 06 be 08 ce 6c 3d
       -0.4569477 -0.03097854 -0.13086127 0.057813674
0000e0 18 83 0d bd 34 92 38 3d 73 65 51 bd ce 29 a8 3d
       -0.03454885 0.045061305 -0.05112214 0.082110986
0000f0 33 b0 93 3c 02 97 ca bd 29 a6 f4 bc 3b 86 f9 bd
       0.018028354 -0.09892084 -0.029864388 -0.121838056
000100 97 42 01 bc a9 de 2f 3d ac 93 25 3d 05 db 3d 3d
       -0.007889411 0.042936955 0.040424034 0.04635145
000110 1f 6e 68 3c 74 81 dc 3c 6e 3b 28 3d 08 f7 89 3d
       0.014186411 0.026917197 0.0410723 0.067365706
000120 d4 95 90 3c ee 8d c6 3d d9 6a 86 3d 4d 77 ea 3c
       0.017649569 0.0969504 0.06563348 0.02862134
000130 01 31 e0 3d 92 56 0c bd 5c fd 9f 3c ef 10 90 3e
       0.10946847 -0.034262247 0.01952999 0.2813792
000140 2f 83 ed 3c 7a 6a 97 bc 95 7b c1 3b 53 21 d7 bb
       0.028993217 -0.01848339 0.0059046247 -0.006565252
000150 f0 36 fe 3b 58 66 cf 3d 7e 1c 85 3c 21 28 8e bb
       0.007758014 0.101269424 0.016248938 -0.00433828
000160 66 51 a0 bd 49 35 49 bc eb 6a 0a be 4a 87 2c bd
       -0.078280255 -0.012280771 -0.13517348 -0.04212121
000170 a5 6f 8a 3d 3a 20 69 bd de 54 1f 3e b5 c1 4d 3e
       0.06759576 -0.0569155 0.15559718 0.20093425
000180 da cf c5 3d aa 6d 01 3e f5 4c 31 bc 80 6f 96 3d
       0.09658785 0.1263949 -0.010821571 0.07345486
000190 44 08 41 3e a4 21 92 bb 55 80 2c 3d e6 5f e1 3d
       0.1885081 -0.0044595767 0.042114574 0.11004619
0001a0 89 1e 8a 3c 64 e8 11 3d 25 6e f4 3c 64 dd 69 3e
       0.016860263 0.035622016 0.029837677 0.2283836
0001b0 bd 5b 04 3e f1 b9 13 3e c2 18 af bd 8f 2d b8 bd
       0.1292562 0.144264 -0.08549644 -0.089930646
0001c0 cb a1 85 bd 51 c4 34 3b 74 55 6c 3d 47 44 6c 3e
       -0.06525 0.0027582834 0.057698682 0.2307292
0001d0 f1 9d 87 bd fe 6c d6 3d a9 1e 32 bd bc fd 7e 3d
       -0.06621922 0.10470007 -0.04348627 0.0622537
0001e0 d0 3c 91 3d 4b 3d 69 3d 6c 53 87 bd d7 d2 39 bd
       0.07091677 0.05694322 -0.06607708 -0.04536709
0001f0 82 e5 1f bc e9 02 27 3e 47 1e cd 3a 13 c5 ea bd
       -0.009759309 0.16309704 0.0015649282 -0.1146337
000200 b6 37 0a bb 8a d9 ac bd e6 c6 83 bd 27 51 7e 3e
       -0.0021090335 -0.0843993 -0.06434421 0.24835645
000210 36 1f 81 bd 90 ef 9d bd 51 cc e0 3c e8 c6 90 bb
       -0.06304781 -0.077117085 0.027441176 -0.0044182427
000220 f9 66 58 be 18 90 a8 3b 00 7c ab bd dc b8 3d 3b
       -0.21133031 0.0051441304 -0.083732605 0.0028949296
000230 58 26 46 3d ba fc 68 bc 99 57 1a 3e dd b8 c9 bd
       0.04837641 -0.014220411 0.15072478 -0.09849713
000240 26 e0 8d be be 24 57 be 8d 9d 2e be c9 48 ee bd
       -0.27710074 -0.2101011 -0.17052288 -0.116349764
000250 d1 4f 1e be e6 ed ce 3c b8 03 86 be 32 38 55 be
       -0.15460135 0.025259923 -0.26174712 -0.20822218
000260 86 91 62 3d 72 9f 82 bc 90 79 d6 bd d6 81 1a 3d
       0.055314563 -0.01594517 -0.10472405 0.037721477
000270 da bc 15 bd 8e 40 d1 bd f5 ea b9 3c b7 df bb bd
       -0.036557056 -0.10217391 0.022695044 -0.091735296
000280 b8 07 0f 3c 4f 21 a3 3c c8 2b ba bd cf 7d 58 3d
       0.008729868 0.019913344 -0.09090382 0.052854355
000290 33 f1 a4 bd 0b 00 f4 bc d7 bd e9 bc e9 86 e7 3c
       -0.080538176 -0.029785177 -0.028532906 0.028262572
0002a0 86 5b 20 bd b9 4c 2a be 27 9f 26 3e a6 0c bc 3c
       -0.039149784 -0.1663083 0.1627165 0.02295525
0002b0 f0 d9 80 3d c7 b1 c7 3d c9 ef a1 bd fa a5 35 bd
       0.06291568 0.09750705 -0.079070635 -0.04434774
0002c0 29 7b 13 bd 09 7e 55 3d 6a 25 a2 bd 40 57 42 3d
       -0.036006127 0.05212215 -0.079172924 0.04744649
0002d0 40 95 2e be 73 9d 12 bd 1c ab 05 be 0b 41 fb bd
       -0.17049122 -0.035794687 -0.13053554 -0.12268265
0002e0 b8 2d 15 3e 5e 06 02 3d 07 ad 80 be 28 f4 1d bd
       0.14568222 0.031744353 -0.2513201 -0.038562924
0002f0 f0 ae d7 3c d0 20 83 3d 65 cd e0 be 11 a0 d3 bc
       0.026328534 0.06402743 -0.43906704 -0.025833162
000300 2a 91 21 3e dc 4f 3d 3e 54 c5 90 3e f4 be c9 bc
       0.15778032 0.18487495 0.2827555 -0.024627186
000310 45 f1 a7 3e e8 6a d8 bc d3 0c 90 bd 60 83 51 3c
       0.32801262 -0.026418164 -0.07033696 0.01278767
000320 48 b0 42 be d5 71 b2 bd bd 29 79 bd bb 09 0f bd
       -0.19012558 -0.08713118 -0.06083082 -0.03492139
000330 df 8b 7a 3d 5b 16 84 bd 45 76 f3 3d e7 50 98 bd
       0.061168548 -0.064495765 0.118877925 -0.07437306
000340 3f 3e ce bd 18 0c 43 3c 22 af c8 bd 6d fa 89 be
       -0.10070466 0.011904739 -0.09799029 -0.26948872
000350 15 c2 66 bd b0 23 6b bd 7b 7e 05 3d fe 3d 08 3e
       -0.056337435 -0.05740708 0.032591324 0.13304898
000360 3b 56 2f 3d c3 b5 c4 3d a3 ac 50 bc df 49 98 3d
       0.042806845 0.09604981 -0.012736472 0.07435965
000370 b2 da 9a 3e 4c 1a 56 3e b7 ff 31 3c 1f e9 bc 3d
       0.30244976 0.20908469 0.01086419 0.09224152
000380 02 1e 24 bc ae 3a 49 3b a0 ff 27 3d e3 00 e9 3d
       -0.01001692 0.0030705142 0.041015267 0.11377122
000390 01 74 b5 bd 7f 22 6e 3e a3 6d 7d bc 62 2f 7b 3d
       -0.088600166 0.23255347 -0.015468034 0.061324485
0003a0 62 e7 15 3e 24 98 81 bc 41 54 e4 bc ea a5 34 be
       0.14639047 -0.015819617 -0.027872207 -0.17641416
0003b0 4a 84 23 be 76 9a d8 bc dd 92 1c be c1 95 48 be
       -0.15968433 -0.02644084 -0.15290399 -0.19588377
0003c0 00 85 78 bc b7 c0 67 bd 16 b1 41 3e db 2b ac bb
       -0.015168428 -0.05658027 0.18915209 -0.0052542514
0003d0 e1 5e 96 bd e0 e8 1c 3e ed 8f 45 bd dc af 60 3e
       -0.073423155 0.1532321 -0.04823296 0.21942085
0003e0 40 82 b2 3c ab 88 d1 3c 4e 18 95 3d fe 2b bb 3d
       0.021790624 0.025577864 0.072800264 0.0913925
0003f0 fb 77 b6 3d cd d4 1a 3d df 65 ce 3d 51 52 80 3d
       0.08909603 0.0378006 0.10078024 0.062657006

decoder.0.bias f4 [16]
000000 fe f9 b1 3d 37 c7 93 3d 46 19 2c 3c c7 c7 7e 3d
       0.0869026 0.072157316 0.0105040725 0.06220224
000010 4a 02 d1 3b 72 24 82 3d 76 65 e6 ba be 7a b2 3d
       0.0063784467 0.06354608 -0.0017577845 0.087148175
000020 7e 4d 10 bd 5d c5 cb bc 86 b0 84 3d 2b cb 8e 3c
       -0.035230152 -0.024874384 0.06478982 0.017430862
000030 b2 44 77 bd fb d2 4c 3a 7c 40 5d 3d 90 cf b3 3d
       -0.060368247 0.0007813421 0.054016575 0.08779824

decoder.2.weight f4 [16, 1, 3, 3]
000000 d9 33 75 be 53 0c db be 83 fa 1c 3d 8f c1 5c 3e
       -0.2394556 -0.4278284 0.038324844 0.21558212
000010 29 88 c8 3d 2c 0d de be 04 40 82 3c c4 80 82 be
       0.097915955 -0.43369424 0.015899666 -0.25488865
000020 24 da eb be 9a 5c 8a 3e fc 3c 51 be 7d a1 73 bd
       -0.46064866 0.27023774 -0.2043342 -0.05948018
000030 d5 ec dd 3e 84 c1 65 be ac dd c4 be 1b 24 fd bd
       0.4334475 -0.22437102 -0.38450372 -0.12360402
000040 10 c8 89 be e7 bb 47 3e fd d6 ba bd c4 6a 13 bf
       -0.26910448 0.19505273 -0.09123037 -0.57584786
000050 b1 3e d4 be 69 e6 d9 3c 34 e4 04 be 02 92 bf be
       -0.4145408 0.026599126 -0.12977678 -0.37416083
000060 3a 55 25 3e 4a 73 33 be a8 a6 05 3e 38 2d 14 bd
       0.16145793 -0.17524448 0.13051856 -0.036175936
000070 a1 ab a0 be 39 1b 04 be 26 cc 0c 3e de 7a 70 3e
       -0.31380942 -0.1290101 0.13749751 0.2348437
000080 32 a8 5b 3e 5c bf ba be ad 87 b6 3e 8d 5f 34 3e
       0.2145088 -0.3647412 0.35650387 0.17614575
000090 1d 6a 62 3d e3 53 9a be 16 bd e7 be 79 da ae be
       0.05527698 -0.30142125 -0.4526145 -0.34151056
0000a0 80 60 89 be 3e aa c8 be 2e f7 ce be ff 9c 94 be
       -0.26831436 -0.39192384 -0.40422958 -0.2902603
0000b0 76 66 a5 be e6 ce ef 3c 99 ee 84 3e ec 4a 87 3e
       -0.32304734 0.029273462 0.25963286 0.26424348
0000c0 40 0a 80 3e f4 18 18 3f fb 3f 55 3e a3 06 6b be
       0.2500782 0.59413075 0.20825188 -0.2295175
0000d0 04 97 b5 3e 3b 3b b0 3d cf 17 16 be a2 10 33 3e
       0.35466778 0.08605047 -0.1465752 0.17486814
0000e0 72 c2 27 3e 62 3b a9 be db 3a c8 be b6 60 67 3e
       0.16382769 -0.33053118 -0.39107403 0.22595486
0000f0 58 05 cf be 6e 77 e6 be 79 11 5a 3e b3 c8 cf 3d
       -0.40433764 -0.45012993 0.21295728 0.10145702
000100 dd 01 ff 3d bd f1 6d 3d 2e bf cb be de 69 93 be
       0.12451527 0.058091868 -0.39794296 -0.28791708
000110 b8 ad a7 be c0 a7 99 be be e4 58 3d 3b 48 a8 be
       -0.32749724 -0.30010796 0.05295252 -0.32867607
000120 cc 95 14 3d e0 b8 6e 3c 93 cd c5 3e c4 f6 05 3e
       0.03627567 0.014570445 0.38633403 0.13082415
000130 4f 2e 11 3f 54 71 a7 3e 40 ea a4 3e 66 b3 00 3c
       0.56711286 0.3270365 0.3220997 0.007855272
000140 52 cc de 3e 88 73 62 3e e6 53 04 3f 7e 34 72 3e
       0.4351526 0.22114384 0.5169052 0.23652837
000150 e8 f7 e1 3e 96 d3 3b 3f 76 66 59 3e 94 b4 93 3e
       0.4413445 0.7336973 0.21230492 0.28848708
000160 c1 30 8a 3e a5 96 fb 3d 9c 29 dc 3b 8b 06 93 be
       0.2699032 0.122845925 0.0067188274 -0.2871593
000170 53 9b 8e be d4 0e b6 be ad 7c a9 be 24 47 26 3c
       -0.27852878 -0.35558188 -0.33102933 0.010148797
000180 6d 9a 9e be 72 df c7 be 9b 77 96 be b6 55 57 be
       -0.30977193 -0.39037663 -0.29388127 -0.2102879
000190 d6 26 21 bb 1b 97 01 bd 59 54 98 bd 74 89 c5 be
       -0.0024589798 -0.031638246 -0.07437963 -0.3858143
0001a0 c6 77 c5 3d 27 66 c2 3e 80 f5 b0 3e 7a 7a 17 be
       0.096419856 0.3796856 0.34562302 -0.14792815
0001b0 e2 5c 6e 3e 46 2c 8f bd c2 14 6e be dd 36 65 3d
       0.2327762 -0.06990866 -0.23250106 0.055960525
0001c0 92 fd 67 3e 1e 8a 06 be d9 05 2e bd 9d 95 03 3f
       0.22655323 -0.13138625 -0.042486046 0.51400167
0001d0 34 15 9f 3d 9b fe 32 3e 25 1d ab 3e e9 06 90 be
       0.07767716 0.17479937 0.33420673 -0.28130272
0001e0 75 cd 8e 3e 87 ca 5f 3e 3c be 4f 3e 4c 45 38 3e
       0.27891126 0.21854602 0.20287412 0.17995185
0001f0 17 da 6a 3d 35 e7 67 be 8e e8 75 bc ee 83 0c bd
       0.057336893 -0.22646792 -0.015009059 -0.034305505
000200 f5 ee 24 3e c2 e5 1c 3c 73 ec ce be 84 bf ed be
       0.1610678 0.009576263 -0.4041477 -0.46435177
000210 5f d9 13 3e 33 ae 0c 3e f4 ca ad 3d 83 17 ad be
       0.14438389 0.13738327 0.08485976 -0.33807
000220 f3 bf 6c be 30 a5 a2 b6 7d 6f 9f be 57 cb c7 be
       -0.23120098 -4.8472066e-06 -0.31139746 -0.39022323
000230 31 99 e1 bd 23 83 9c be fc 2c 01 bf b9 e5 70 be
       -0.11015547 -0.305688 -0.50459266 -0.23525132
